…
2025-05-24 01:26:43 | INFO | fairseq.tasks.speech_to_text | dictionary size (spm_unigram8000_st.txt): 8,000
2025-05-24 01:26:43 | WARNING | fairseq.models.speech_to_text.s2t_transformer | skipped pretraining because /scratch/kd502/fairseq/examples/speech_to_text/exp_mustc/ASR_Save/mustc_de_st_transformer_s.ptls does not exist
2025-05-24 01:26:43 | WARNING | root | !!!!! MLTA is used !!!!!
2025-05-24 01:26:44 | INFO | fairseq_cli.train | S2TTransformerModel(
  (encoder): S2TTransformerEncoder(
    (dropout_module): FairseqDropout()
    (subsample): Conv1dSubsampler(
      (conv_layers): ModuleList(
        (0): Conv1d(80, 1024, kernel_size=(5,), stride=(2,), padding=(2,))
        (1): Conv1d(512, 1024, kernel_size=(5,), stride=(2,), padding=(2,))
      )
    )
    (embed_positions): SinusoidalPositionalEmbedding()
    (transformer_layers): ModuleList(
      (0): TransformerEncoderLayer(
        (self_attn): MultiheadAttention(
          (dropout_module): FairseqDropout()
          (k_proj): Linear(in_features=512, out_features=512, bias=True)
          (v_proj): Linear(in_features=512, out_features=512, bias=True)
          (q_proj): Linear(in_features=512, out_features=512, bias=True)
          (out_proj): Linear(in_features=512, out_features=512, bias=True)
        )
        (self_attn_layer_norm): LayerNorm((512,), eps=1e-05, elementwise_affine=True)
        (dropout_module): FairseqDropout()
        (activation_dropout_module): FairseqDropout()
        (fc1): Linear(in_features=512, out_features=2048, bias=True)
        (fc2): Linear(in_features=2048, out_features=512, bias=True)
        (final_layer_norm): LayerNorm((512,), eps=1e-05, elementwise_affine=True)
      )
      (1): TransformerEncoderLayer(
        (self_attn): MultiheadAttention(
          (dropout_module): FairseqDropout()
          (k_proj): Linear(in_features=512, out_features=512, bias=True)
          (v_proj): Linear(in_features=512, out_features=512, bias=True)
          (q_proj): Linear(in_features=512, out_features=512, bias=True)
          (out_proj): Linear(in_features=512, out_features=512, bias=True)
        )
        (self_attn_layer_norm): LayerNorm((512,), eps=1e-05, elementwise_affine=True)
        (dropout_module): FairseqDropout()
        (activation_dropout_module): FairseqDropout()
        (fc1): Linear(in_features=512, out_features=2048, bias=True)
        (fc2): Linear(in_features=2048, out_features=512, bias=True)
        (final_layer_norm): LayerNorm((512,), eps=1e-05, elementwise_affine=True)
      )
      (2): TransformerEncoderLayer(
        (self_attn): MultiheadAttention(
          (dropout_module): FairseqDropout()
          (k_proj): Linear(in_features=512, out_features=512, bias=True)
          (v_proj): Linear(in_features=512, out_features=512, bias=True)
          (q_proj): Linear(in_features=512, out_features=512, bias=True)
          (out_proj): Linear(in_features=512, out_features=512, bias=True)
        )
        (self_attn_layer_norm): LayerNorm((512,), eps=1e-05, elementwise_affine=True)
        (dropout_module): FairseqDropout()
        (activation_dropout_module): FairseqDropout()
        (fc1): Linear(in_features=512, out_features=2048, bias=True)
        (fc2): Linear(in_features=2048, out_features=512, bias=True)
        (final_layer_norm): LayerNorm((512,), eps=1e-05, elementwise_affine=True)
      )
      (3): TransformerEncoderLayer(
        (self_attn): MultiheadAttention(
          (dropout_module): FairseqDropout()
          (k_proj): Linear(in_features=512, out_features=512, bias=True)
          (v_proj): Linear(in_features=512, out_features=512, bias=True)
          (q_proj): Linear(in_features=512, out_features=512, bias=True)
          (out_proj): Linear(in_features=512, out_features=512, bias=True)
        )
        (self_attn_layer_norm): LayerNorm((512,), eps=1e-05, elementwise_affine=True)
        (dropout_module): FairseqDropout()
        (activation_dropout_module): FairseqDropout()
        (fc1): Linear(in_features=512, out_features=2048, bias=True)
        (fc2): Linear(in_features=2048, out_features=512, bias=True)
        (final_layer_norm): LayerNorm((512,), eps=1e-05, elementwise_affine=True)
      )
      (4): TransformerEncoderLayer(
        (self_attn): MultiheadAttention(
          (dropout_module): FairseqDropout()
          (k_proj): Linear(in_features=512, out_features=512, bias=True)
          (v_proj): Linear(in_features=512, out_features=512, bias=True)
          (q_proj): Linear(in_features=512, out_features=512, bias=True)
          (out_proj): Linear(in_features=512, out_features=512, bias=True)
        )
        (self_attn_layer_norm): LayerNorm((512,), eps=1e-05, elementwise_affine=True)
        (dropout_module): FairseqDropout()
        (activation_dropout_module): FairseqDropout()
        (fc1): Linear(in_features=512, out_features=2048, bias=True)
        (fc2): Linear(in_features=2048, out_features=512, bias=True)
        (final_layer_norm): LayerNorm((512,), eps=1e-05, elementwise_affine=True)
      )
      (5): TransformerEncoderLayer(
        (self_attn): MultiheadAttention(
          (dropout_module): FairseqDropout()
          (k_proj): Linear(in_features=512, out_features=512, bias=True)
          (v_proj): Linear(in_features=512, out_features=512, bias=True)
          (q_proj): Linear(in_features=512, out_features=512, bias=True)
          (out_proj): Linear(in_features=512, out_features=512, bias=True)
        )
        (self_attn_layer_norm): LayerNorm((512,), eps=1e-05, elementwise_affine=True)
        (dropout_module): FairseqDropout()
        (activation_dropout_module): FairseqDropout()
        (fc1): Linear(in_features=512, out_features=2048, bias=True)
        (fc2): Linear(in_features=2048, out_features=512, bias=True)
        (final_layer_norm): LayerNorm((512,), eps=1e-05, elementwise_affine=True)
      )
      (6): TransformerEncoderLayer(
        (self_attn): MultiheadAttention(
          (dropout_module): FairseqDropout()
          (k_proj): Linear(in_features=512, out_features=512, bias=True)
          (v_proj): Linear(in_features=512, out_features=512, bias=True)
          (q_proj): Linear(in_features=512, out_features=512, bias=True)
          (out_proj): Linear(in_features=512, out_features=512, bias=True)
        )
        (self_attn_layer_norm): LayerNorm((512,), eps=1e-05, elementwise_affine=True)
        (dropout_module): FairseqDropout()
        (activation_dropout_module): FairseqDropout()
        (fc1): Linear(in_features=512, out_features=2048, bias=True)
        (fc2): Linear(in_features=2048, out_features=512, bias=True)
        (final_layer_norm): LayerNorm((512,), eps=1e-05, elementwise_affine=True)
      )
      (7): TransformerEncoderLayer(
        (self_attn): MultiheadAttention(
          (dropout_module): FairseqDropout()
          (k_proj): Linear(in_features=512, out_features=512, bias=True)
          (v_proj): Linear(in_features=512, out_features=512, bias=True)
          (q_proj): Linear(in_features=512, out_features=512, bias=True)
          (out_proj): Linear(in_features=512, out_features=512, bias=True)
        )
        (self_attn_layer_norm): LayerNorm((512,), eps=1e-05, elementwise_affine=True)
        (dropout_module): FairseqDropout()
        (activation_dropout_module): FairseqDropout()
        (fc1): Linear(in_features=512, out_features=2048, bias=True)
        (fc2): Linear(in_features=2048, out_features=512, bias=True)
        (final_layer_norm): LayerNorm((512,), eps=1e-05, elementwise_affine=True)
      )
      (8): TransformerEncoderLayer(
        (self_attn): MultiheadAttention(
          (dropout_module): FairseqDropout()
          (k_proj): Linear(in_features=512, out_features=512, bias=True)
          (v_proj): Linear(in_features=512, out_features=512, bias=True)
          (q_proj): Linear(in_features=512, out_features=512, bias=True)
          (out_proj): Linear(in_features=512, out_features=512, bias=True)
        )
        (self_attn_layer_norm): LayerNorm((512,), eps=1e-05, elementwise_affine=True)
        (dropout_module): FairseqDropout()
        (activation_dropout_module): FairseqDropout()
        (fc1): Linear(in_features=512, out_features=2048, bias=True)
        (fc2): Linear(in_features=2048, out_features=512, bias=True)
        (final_layer_norm): LayerNorm((512,), eps=1e-05, elementwise_affine=True)
      )
      (9): TransformerEncoderLayer(
        (self_attn): MultiheadAttention(
          (dropout_module): FairseqDropout()
          (k_proj): Linear(in_features=512, out_features=512, bias=True)
          (v_proj): Linear(in_features=512, out_features=512, bias=True)
          (q_proj): Linear(in_features=512, out_features=512, bias=True)
          (out_proj): Linear(in_features=512, out_features=512, bias=True)
        )
        (self_attn_layer_norm): LayerNorm((512,), eps=1e-05, elementwise_affine=True)
        (dropout_module): FairseqDropout()
        (activation_dropout_module): FairseqDropout()
        (fc1): Linear(in_features=512, out_features=2048, bias=True)
        (fc2): Linear(in_features=2048, out_features=512, bias=True)
        (final_layer_norm): LayerNorm((512,), eps=1e-05, elementwise_affine=True)
      )
      (10): TransformerEncoderLayer(
        (self_attn): MultiheadAttention(
          (dropout_module): FairseqDropout()
          (k_proj): Linear(in_features=512, out_features=512, bias=True)
          (v_proj): Linear(in_features=512, out_features=512, bias=True)
          (q_proj): Linear(in_features=512, out_features=512, bias=True)
          (out_proj): Linear(in_features=512, out_features=512, bias=True)
        )
        (self_attn_layer_norm): LayerNorm((512,), eps=1e-05, elementwise_affine=True)
        (dropout_module): FairseqDropout()
        (activation_dropout_module): FairseqDropout()
        (fc1): Linear(in_features=512, out_features=2048, bias=True)
        (fc2): Linear(in_features=2048, out_features=512, bias=True)
        (final_layer_norm): LayerNorm((512,), eps=1e-05, elementwise_affine=True)
      )
      (11): TransformerEncoderLayer(
        (self_attn): MultiheadAttention(
          (dropout_module): FairseqDropout()
          (k_proj): Linear(in_features=512, out_features=512, bias=True)
          (v_proj): Linear(in_features=512, out_features=512, bias=True)
          (q_proj): Linear(in_features=512, out_features=512, bias=True)
          (out_proj): Linear(in_features=512, out_features=512, bias=True)
        )
        (self_attn_layer_norm): LayerNorm((512,), eps=1e-05, elementwise_affine=True)
        (dropout_module): FairseqDropout()
        (activation_dropout_module): FairseqDropout()
        (fc1): Linear(in_features=512, out_features=2048, bias=True)
        (fc2): Linear(in_features=2048, out_features=512, bias=True)
        (final_layer_norm): LayerNorm((512,), eps=1e-05, elementwise_affine=True)
      )
    )
    (layer_norm): LayerNorm((512,), eps=1e-05, elementwise_affine=True)
  )
  (decoder): MLTADecoderOnly(
    (dropout_module): FairseqDropout()
    (embed_tokens): Embedding(8000, 512, padding_idx=1)
    (embed_positions): None
    (layers): ModuleList(
      (0): MLTADecoderOnlyLayer(
        (dropout_module): FairseqDropout()
        (self_attn): MultiheadLatentTemporalAttention(
          (wq): Linear(in_features=512, out_features=768, bias=False)
          (wkv_a): Linear(in_features=512, out_features=288, bias=False)
          (kv_norm): LayerNorm((256,), eps=1e-05, elementwise_affine=True)
          (wkv_b): Linear(in_features=256, out_features=1024, bias=False)
          (wo): Linear(in_features=512, out_features=512, bias=False)
          (hypernet_down): HyperNetwork(
            (fc_c): Linear(in_features=256, out_features=64, bias=True)
            (fc_p): Linear(in_features=256, out_features=64, bias=True)
          )
        )
        (activation_dropout_module): FairseqDropout()
        (self_attn_layer_norm): LayerNorm((512,), eps=1e-05, elementwise_affine=True)
        (fc1): Linear(in_features=512, out_features=2048, bias=True)
        (fc2): Linear(in_features=2048, out_features=512, bias=True)
        (final_layer_norm): LayerNorm((512,), eps=1e-05, elementwise_affine=True)
      )
      (1): MLTADecoderOnlyLayer(
        (dropout_module): FairseqDropout()
        (self_attn): MultiheadLatentTemporalAttention(
          (wq): Linear(in_features=512, out_features=768, bias=False)
          (wkv_a): Linear(in_features=512, out_features=288, bias=False)
          (kv_norm): LayerNorm((256,), eps=1e-05, elementwise_affine=True)
          (wkv_b): Linear(in_features=256, out_features=1024, bias=False)
          (wo): Linear(in_features=512, out_features=512, bias=False)
          (hypernet_down): HyperNetwork(
            (fc_c): Linear(in_features=256, out_features=64, bias=True)
            (fc_p): Linear(in_features=256, out_features=64, bias=True)
          )
        )
        (activation_dropout_module): FairseqDropout()
        (self_attn_layer_norm): LayerNorm((512,), eps=1e-05, elementwise_affine=True)
        (fc1): Linear(in_features=512, out_features=2048, bias=True)
        (fc2): Linear(in_features=2048, out_features=512, bias=True)
        (final_layer_norm): LayerNorm((512,), eps=1e-05, elementwise_affine=True)
      )
      (2): MLTADecoderOnlyLayer(
        (dropout_module): FairseqDropout()
        (self_attn): MultiheadLatentTemporalAttention(
          (wq): Linear(in_features=512, out_features=768, bias=False)
          (wkv_a): Linear(in_features=512, out_features=288, bias=False)
          (kv_norm): LayerNorm((256,), eps=1e-05, elementwise_affine=True)
          (wkv_b): Linear(in_features=256, out_features=1024, bias=False)
          (wo): Linear(in_features=512, out_features=512, bias=False)
          (hypernet_down): HyperNetwork(
            (fc_c): Linear(in_features=256, out_features=64, bias=True)
            (fc_p): Linear(in_features=256, out_features=64, bias=True)
          )
        )
        (activation_dropout_module): FairseqDropout()
        (self_attn_layer_norm): LayerNorm((512,), eps=1e-05, elementwise_affine=True)
        (fc1): Linear(in_features=512, out_features=2048, bias=True)
        (fc2): Linear(in_features=2048, out_features=512, bias=True)
        (final_layer_norm): LayerNorm((512,), eps=1e-05, elementwise_affine=True)
      )
      (3): MLTADecoderOnlyLayer(
        (dropout_module): FairseqDropout()
        (self_attn): MultiheadLatentTemporalAttention(
          (wq): Linear(in_features=512, out_features=768, bias=False)
          (wkv_a): Linear(in_features=512, out_features=288, bias=False)
          (kv_norm): LayerNorm((256,), eps=1e-05, elementwise_affine=True)
          (wkv_b): Linear(in_features=256, out_features=1024, bias=False)
          (wo): Linear(in_features=512, out_features=512, bias=False)
          (hypernet_down): HyperNetwork(
            (fc_c): Linear(in_features=256, out_features=64, bias=True)
            (fc_p): Linear(in_features=256, out_features=64, bias=True)
          )
        )
        (activation_dropout_module): FairseqDropout()
        (self_attn_layer_norm): LayerNorm((512,), eps=1e-05, elementwise_affine=True)
        (fc1): Linear(in_features=512, out_features=2048, bias=True)
        (fc2): Linear(in_features=2048, out_features=512, bias=True)
        (final_layer_norm): LayerNorm((512,), eps=1e-05, elementwise_affine=True)
      )
      (4): MLTADecoderOnlyLayer(
        (dropout_module): FairseqDropout()
        (self_attn): MultiheadLatentTemporalAttention(
          (wq): Linear(in_features=512, out_features=768, bias=False)
          (wkv_a): Linear(in_features=512, out_features=288, bias=False)
          (kv_norm): LayerNorm((256,), eps=1e-05, elementwise_affine=True)
          (wkv_b): Linear(in_features=256, out_features=1024, bias=False)
          (wo): Linear(in_features=512, out_features=512, bias=False)
          (hypernet_down): HyperNetwork(
            (fc_c): Linear(in_features=256, out_features=64, bias=True)
            (fc_p): Linear(in_features=256, out_features=64, bias=True)
          )
        )
        (activation_dropout_module): FairseqDropout()
        (self_attn_layer_norm): LayerNorm((512,), eps=1e-05, elementwise_affine=True)
        (fc1): Linear(in_features=512, out_features=2048, bias=True)
        (fc2): Linear(in_features=2048, out_features=512, bias=True)
        (final_layer_norm): LayerNorm((512,), eps=1e-05, elementwise_affine=True)
      )
      (5): MLTADecoderOnlyLayer(
        (dropout_module): FairseqDropout()
        (self_attn): MultiheadLatentTemporalAttention(
          (wq): Linear(in_features=512, out_features=768, bias=False)
          (wkv_a): Linear(in_features=512, out_features=288, bias=False)
          (kv_norm): LayerNorm((256,), eps=1e-05, elementwise_affine=True)
          (wkv_b): Linear(in_features=256, out_features=1024, bias=False)
          (wo): Linear(in_features=512, out_features=512, bias=False)
          (hypernet_down): HyperNetwork(
            (fc_c): Linear(in_features=256, out_features=64, bias=True)
            (fc_p): Linear(in_features=256, out_features=64, bias=True)
          )
        )
        (activation_dropout_module): FairseqDropout()
        (self_attn_layer_norm): LayerNorm((512,), eps=1e-05, elementwise_affine=True)
        (fc1): Linear(in_features=512, out_features=2048, bias=True)
        (fc2): Linear(in_features=2048, out_features=512, bias=True)
        (final_layer_norm): LayerNorm((512,), eps=1e-05, elementwise_affine=True)
      )
      (6): MLTADecoderOnlyLayer(
        (dropout_module): FairseqDropout()
        (self_attn): MultiheadLatentTemporalAttention(
          (wq): Linear(in_features=512, out_features=768, bias=False)
          (wkv_a): Linear(in_features=512, out_features=288, bias=False)
          (kv_norm): LayerNorm((256,), eps=1e-05, elementwise_affine=True)
          (wkv_b): Linear(in_features=256, out_features=1024, bias=False)
          (wo): Linear(in_features=512, out_features=512, bias=False)
          (hypernet_down): HyperNetwork(
            (fc_c): Linear(in_features=256, out_features=64, bias=True)
            (fc_p): Linear(in_features=256, out_features=64, bias=True)
          )
        )
        (activation_dropout_module): FairseqDropout()
        (self_attn_layer_norm): LayerNorm((512,), eps=1e-05, elementwise_affine=True)
        (fc1): Linear(in_features=512, out_features=2048, bias=True)
        (fc2): Linear(in_features=2048, out_features=512, bias=True)
        (final_layer_norm): LayerNorm((512,), eps=1e-05, elementwise_affine=True)
      )
      (7): MLTADecoderOnlyLayer(
        (dropout_module): FairseqDropout()
        (self_attn): MultiheadLatentTemporalAttention(
          (wq): Linear(in_features=512, out_features=768, bias=False)
          (wkv_a): Linear(in_features=512, out_features=288, bias=False)
          (kv_norm): LayerNorm((256,), eps=1e-05, elementwise_affine=True)
          (wkv_b): Linear(in_features=256, out_features=1024, bias=False)
          (wo): Linear(in_features=512, out_features=512, bias=False)
          (hypernet_down): HyperNetwork(
            (fc_c): Linear(in_features=256, out_features=64, bias=True)
            (fc_p): Linear(in_features=256, out_features=64, bias=True)
          )
        )
        (activation_dropout_module): FairseqDropout()
        (self_attn_layer_norm): LayerNorm((512,), eps=1e-05, elementwise_affine=True)
        (fc1): Linear(in_features=512, out_features=2048, bias=True)
        (fc2): Linear(in_features=2048, out_features=512, bias=True)
        (final_layer_norm): LayerNorm((512,), eps=1e-05, elementwise_affine=True)
      )
      (8): MLTADecoderOnlyLayer(
        (dropout_module): FairseqDropout()
        (self_attn): MultiheadLatentTemporalAttention(
          (wq): Linear(in_features=512, out_features=768, bias=False)
          (wkv_a): Linear(in_features=512, out_features=288, bias=False)
          (kv_norm): LayerNorm((256,), eps=1e-05, elementwise_affine=True)
          (wkv_b): Linear(in_features=256, out_features=1024, bias=False)
          (wo): Linear(in_features=512, out_features=512, bias=False)
          (hypernet_down): HyperNetwork(
            (fc_c): Linear(in_features=256, out_features=64, bias=True)
            (fc_p): Linear(in_features=256, out_features=64, bias=True)
          )
        )
        (activation_dropout_module): FairseqDropout()
        (self_attn_layer_norm): LayerNorm((512,), eps=1e-05, elementwise_affine=True)
        (fc1): Linear(in_features=512, out_features=2048, bias=True)
        (fc2): Linear(in_features=2048, out_features=512, bias=True)
        (final_layer_norm): LayerNorm((512,), eps=1e-05, elementwise_affine=True)
      )
    )
    (layer_norm): LayerNorm((512,), eps=1e-05, elementwise_affine=True)
    (output_projection): Linear(in_features=512, out_features=8000, bias=False)
    (projector): EncoderProjectorConcat(
      (linear1): Linear(in_features=512, out_features=256, bias=True)
      (relu): ReLU()
      (linear2): Linear(in_features=256, out_features=512, bias=True)
    )
  )
)
2025-05-24 01:26:44 | INFO | fairseq_cli.train | task: SpeechToTextTask
2025-05-24 01:26:44 | INFO | fairseq_cli.train | model: S2TTransformerModel
2025-05-24 01:26:44 | INFO | fairseq_cli.train | criterion: LabelSmoothedCrossEntropyCriterion
2025-05-24 01:26:44 | INFO | fairseq_cli.train | num. shared model params: 78,119,808 (num. trained: 78,119,808)
…
